data.pth (torch, 5015 bytes, 6 tensors)

l1.weight f4 [8, 54]
-0.11105842 -0.25357637 0.025246367 0.22727218 0.5078247 0.87919736 0.18146338 0.17162985
0.07901325 0.21719928 0.31228423 -0.40092075 0.48090506 -0.35432938 -0.09026902 -0.29624698
0.39377984 0.8807671 0.3528798 0.43796605 -0.16698031 0.36707875 0.37273127 0.064884305
-0.044792313 0.4233142 0.47876462 -0.13275585 0.24090818 -0.31704718 0.6453313 -0.37350604
0.03192804 0.106177494 0.09430938 -0.23166722 0.22450623 0.13657081 0.23591468 0.2796481
0.6358293 0.36195567 -0.22310454 -0.04274553 -0.07198877 0.12639189 -0.7001619 -0.18067858
0.3402701 0.43673217 -0.38033807 0.34628144 0.3737409 0.3004997 0.17680374 -0.002584197
0.28188363 -0.19674309 0.0517189 -0.3780132 0.46173885 0.42283005 0.52213633 0.35033798
-0.18051957 0.5681357 0.54977596 0.40601382 0.14348581 0.34140992 -0.19736378 -0.3779043
0.38343874 -0.33462372 0.2891379 -0.3778929 -0.37796333 0.25963143 0.23779076 -0.061216503
0.48410082 0.11573763 0.19462422 0.027490657 -0.2885348 0.42517248 0.23462045 0.3217735
0.31306812 0.1513356 0.33199036 0.58009714 0.40474302 0.33855158 -0.21059322 0.48873326
0.36038426 0.007534295 0.38857648 0.19707152 0.47408617 0.21375628 0.10775469 0.585405
0.28772885 0.32747737 0.25016528 0.12137311 -0.20380676 0.65815735 0.60828775 -0.14308275
-0.0016379446 -0.38213977 0.59165645 0.3218531 0.5603618 0.34963012 -0.26182184 0.36747098
0.37277004 0.38427952 0.62826926 0.423372 -0.119464315 -0.38133675 -0.37550423 -0.38120607
-0.08432909 -0.38126248 -0.3814483 0.09527831 0.41829646 -0.047170214 -0.26204458 0.78669155
-0.049219027 0.52408034 -0.2721214 0.49806255 -0.04424666 0.573211 0.6343338 0.42976707
-0.008737034 0.57555354 0.45402402 0.58655316 -0.17968003 -0.38948816 0.2805097 0.62135154
0.55297416 0.7509412 -0.15198092 -0.09598844 -0.0941288 -0.29972392 0.23002928 -0.17909047
0.42847848 0.17524278 0.44406828 -0.18460977 -0.38899174 0.4456623 0.22008179 -0.59236366
-0.27118552 -0.42983016 -0.6264825 -0.23389593 0.2532173 0.33892176 -0.15560737 0.3956581
-0.15467653 0.42016494 0.39056477 -0.5812088 0.17813239 0.4161933 0.47360513 0.64891696
0.53459024 0.6389787 0.30142397 0.5117158 0.053857543 -0.20060638 0.05765595 -0.33713573
-0.47412413 0.17719163 0.4234137 -0.33359814 -0.19202603 0.21587199 -0.15088867 -0.47193924
-0.2601564 -0.22384389 -0.38910803 0.32157412 0.17033187 -0.23190281 -0.058819268 -0.059462916
0.81730574 0.58102846 0.36621445 0.00916605 0.3956083 0.038751196 -0.18305467 0.24153538
-0.20930691 -0.028517991 -0.023202099 0.44685283 0.31056774 -0.43260127 0.18729867 0.22502123
-0.37038466 0.21154301 0.33055305 -0.1789511 -0.219927 -0.21581797 -0.23881397 -0.23877238
0.5868358 -0.42292655 -0.19251736 0.71057945 -0.097316466 0.41822416 0.60908306 0.41035432
0.05219626 0.3312342 -0.31923252 -0.1472385 -0.31765512 -0.14713073 -0.26591974 -0.27730936
0.1511696 0.15508062 -0.21401495 -0.07570258 -0.2806746 -0.32296136 0.18778072 0.13182043
00000000: 9972 e3bd c3d4 81be 78d1 ce3c 0aba 683e
00000010: cd00 023f 1413 613f 89d1 393e bcbf 2f3e
00000020: b3d1 a13d 7d69 5e3e b8e3 9f3e 7c45 cdbe
00000030: 3039 f63e a96a b5be f7de b8bd afad 97be
00000040: 839d c93e f479 613f a9ac b43e 163d e03e
00000050: e3fc 2abe bff1 bb3e a2d6 be3e 10e2 843d
00000060: 2578 37bd a4bc d83e a320 f53e 26f1 07be
00000070: a2b0 763e 0254 a2be 6f34 253f 2f3c bfbe
00000080: fac6 023d 9673 d93d 4725 c13d 2c3a 6dbe
00000090: f6e4 653e 38d9 0b3e 9e93 713e 092e 8f3e
000000a0: b6c5 223f 4152 b93e 8475 64be f015 2fbd
000000b0: d96e 93bd e06c 013e cf3d 33bf ce03 39be
000000c0: e237 ae3e 5c9b df3e acbb c2be cd4b b13e
000000d0: f85a bf3e 19db 993e 0a0c 353e a25b 29bb
000000e0: 0d53 903e 0577 49be 33d7 533d f28a c1be
000000f0: 0969 ec3e 2e7d d83e baaa 053f 805f b33e
00000100: 1fda 38be 5771 113f 1ebe 0c3f 0be1 cf3e
00000110: f2ed 123e 48cd ae3e bb19 4abe ac7c c1be
00000120: 1552 c43e cd53 abbe e209 943e 2e7b c1be
00000130: 6984 c1be 69ee 843e 6c7f 733e 28be 7abd
00000140: 10dc f73e da07 ed3d 924b 473e 1634 e13c
00000150: d5ba 93be 35b0 d93e 5840 703e 7fbf a43e
00000160: 774a a03e b8f7 1a3e a4fa a93e 3f81 143f
00000170: 7a3a cf3e a256 ad3e c0a5 57be 3f3b fa3e
00000180: 4984 b83e 3fe2 f63b 7ff3 c63e 1ecd 493e
00000190: 6cbb f23e ede2 5a3e 7eae dc3d 1add 153f
000001a0: 3251 933e 1dab a73e aa15 803e 7792 f83d
000001b0: b8b2 50be 007d 283f bfb8 1b3f 4984 12be
000001c0: 4db0 d6ba d3a7 c3be cc76 173f eec9 a43e
000001d0: df73 0f3f b802 b33e 830d 86be 2825 bc3e
000001e0: b7db be3e 49c0 c43e 41d6 203f 37c4 d83e
000001f0: b5a9 f4bd 923e c3be 1742 c0be 712d c3be
00000200: bbb4 acbd d634 c3be 314d c3be 4621 c33d
00000210: f42a d63e 8e35 41bd b52a 86be 9e64 493f
00000220: e499 49bd 212a 063f 7f53 8bbe 0e02 ff3e
00000230: fc3b 35bd f5bd 123f b363 223f 6e0a dc3e
00000240: c725 0fbc 7a57 133f d675 e83e 5928 163f
00000250: 0bfe 37be fe6a c7be f89e 8f3e e510 1f3f
00000260: b78f 0d3f af3d 403f e3a0 1bbe 9695 c4bd
00000270: 9ac6 c0bd 6a75 99be cc8c 6b3e 7e63 37be
00000280: 8861 db3e d872 333e eb5c e33e 580a 3dbe
00000290: ed29 c7be d92d e43e 1f5d 613e 25a5 17bf
000002a0: d4d8 8abe b312 dcbe 2861 20bf 6a82 6fbe
000002b0: b3a5 813e 2787 ad3e 8a57 1fbe b393 ca3e
000002c0: 8663 1ebe dc1f d73e 1bf8 c73e 1aca 14bf
000002d0: 5668 363e 4a17 d53e 5f7c f23e 6c1f 263f
000002e0: e8da 083f 1c94 233f 3e54 9a3e cfff 023f
000002f0: ba99 5c3d c26b 4dbe a528 6c3d 0e9d acbe
00000300: 66c0 f2be b971 353e aec9 d83e 60cd aabe
00000310: 79a2 44be 8c0d 5d3e 8f82 1abe 05a2 f1be
00000320: 3833 85be 5537 65be 2b39 c7be 5da5 a43e
00000330: 7a6b 2e3e ee77 6dbe 79ec 70bd 638f 73bd
00000340: f33a 513f 48be 143f 7680 bb3e 332d 163c
00000350: 2c8d ca3e 93b9 1e3d af72 3bbe 0d55 773e
00000360: 8d54 56be 909e e9bc 5412 bebc e5c9 e43e
00000370: bc02 9f3e ea7d ddbe 39cb 3f3e f76b 663e
00000380: 0fa3 bdbe bb9e 583e 403e a93e f53e 37be
00000390: 8b34 61be 63ff 5cbe a68b 74be bf80 74be
000003a0: df3a 163f d489 d8be 4523 45be 89e8 353f
000003b0: db4d c7bd 7a21 d63e deec 1b3f f619 d23e
000003c0: bfcb 553d 8797 a93e 7272 a3be b0c5 16be
000003d0: b1a3 a2be 70a9 16be a226 88be 7efb 8dbe
000003e0: 34cc 1a3e 74cd 1e3e bc26 5bbe f409 9bbd
000003f0: 95b4 8fbe 315b a5be 9749 403e effb 063e

l1.bias f4 [8]
0.97913706 0.37790492 0.3812675 0.6367524 0.67991304 0.903499 0.3031367 0.22919019
00000000: baa8 7a3f c17c c13e 7e35 c33e 3502 233f
00000010: c80e 2e3f b64b 673f bc34 9b3e d5b0 6a3e

l2.weight f4 [8, 8]
-0.15066563 0.5546572 0.41562477 0.46563557 -0.7316041 1.1818206 -0.16510569 -0.92686677
1.1560102 -0.4116651 -1.0122968 0.59921545 0.44623712 0.7852227 -0.295752 0.12007733
-0.12454002 0.74462223 -0.3509605 1.8282566 -0.13453014 0.34591317 0.04700657 0.72350055
1.0422682 0.6746713 0.14490809 -0.5277243 0.31295356 -0.511135 0.6708317 0.61441684
0.7961461 -0.49991086 0.3412846 0.060988612 0.069430165 0.9705291 -0.53968513 -0.8514296
0.21499264 -0.76868993 0.0639556 0.89333135 1.0358797 -0.444225 1.0707746 0.18075976
-0.5523924 0.58876777 0.6088637 1.0145228 1.3293688 0.4180531 0.97291255 -0.52241534
0.4412834 1.2505953 1.202359 -0.6587149 -0.5836677 -0.28519556 0.48064467 0.6834202
00000000: 1748 1abe 04fe 0d3f c5cc d43e c967 ee3e
00000010: 684a 3bbf e645 973f 7711 29be 2447 6dbf
00000020: 24f8 933f c5c5 d2be f192 81bf 2f66 193f
00000030: 3179 e43e 5b04 493f ce6c 97be 1aeb f53d
00000040: d70e ffbd 909f 3e3f 18b1 b3be 5004 ea3f
00000050: 45c2 09be 881b b13e f689 403d 5537 393f
00000060: 0b69 853f 42b7 2c3f c962 143e f118 07bf
00000070: 733b a03e bed9 02bf a0bb 2b3f 6c4a 1d3f
00000080: 3bd0 4b3f 51f4 ffbe dbbc ae3e 32cf 793d
00000090: 6731 8e3d 9874 783f ce28 0abf 4af7 59bf
000000a0: 0827 5c3e ddc8 44bf 27fb 823d 5db1 643f
000000b0: b597 843f 7671 e3be 240f 893f 1619 393e
000000c0: 9769 0dbf 7cb9 163f 7ede 1b3f e2db 813f
000000d0: c228 aa3f 0e0b d63e cc10 793f 03bd 05bf
000000e0: e6ef e13e 8213 a03f e6e6 993f 8aa1 28bf
000000f0: 3f6b 15bf 2705 92be 0f17 f63e a0f4 2e3f

l2.bias f4 [8]
0.61144245 0.70473856 -0.37256324 0.5662521 0.74816835 0.31003684 -0.019999918 0.21721564
00000000: 7e87 1c3f bf69 343f 9cc0 bebe e6f5 103f
00000010: f687 3f3f 26bd 9e3e ded6 a3bc c76d 5e3e

l3.weight f4 [7, 8]
0.34953606 -1.1382128 0.30866557 -0.7258678 -1.2897809 -0.33057547 0.19452983 0.29528335
0.5098643 -1.143622 -1.4513881 -0.6168103 0.6860887 -0.5305916 -0.018861897 0.34842765
0.21246132 0.74962825 -1.2301571 -0.10460544 0.80666417 -0.44406417 -1.4787046 -0.38612798
-1.202071 0.38200092 -0.15898028 -0.041370712 -0.4595257 1.0204364 0.015265421 -0.5423972
-0.7320336 0.4445675 0.5665739 0.22535871 -0.27598092 -1.0875641 -1.3789341 0.20335601
-0.8408352 -0.48602575 -1.0487758 0.55288017 -1.2797858 0.4192802 -0.3053889 0.61633396
0.46958864 -0.09803808 0.38707024 -1.3035128 0.30822575 -0.42813367 0.006244498 -0.8515754
00000000: 64f6 b23e f5b0 91bf 6a09 9e3e 79d2 39bf
00000010: 8a17 a5bf 3041 a9be d432 473e 612f 973e
00000020: 7786 023f 3562 92bf 16c7 b9bf 48e7 1dbf
00000030: 82a3 2f3f dad4 07bf 4484 9abc 1c65 b23e
00000040: 768f 593e a3e7 3f3f ca75 9dbf 603b d6bd
00000050: 8b81 4e3f 615c e3be 3146 bdbf 91b2 c5be
00000060: 76dd 99bf a095 c33e bacb 22be 5674 29bd
00000070: f446 ebbe a99d 823f d11b 7a3c 8bda 0abf
00000080: 8e66 3bbf 5a9e e33e fd0a 113f 6fc4 663e
00000090: 5f4d 8dbe 4d35 8bbf ea80 b0bf 8f3c 503e
000000a0: fa40 57bf 5ed8 f8be 493e 86bf 8e89 0d3f
000000b0: 05d0 a3bf e5ab d63e ef5b 9cbe 10c8 1d3f
000000c0: ec6d f03e 30c8 c8bd 122e c63e 82d9 a6bf
000000d0: c4cf 9d3e 5634 dbbe a59e cc3b d800 5abf

l3.bias f4 [7]
-0.25102246 0.2838654 -0.038096968 0.33578107 -0.3037783 0.0649271 0.12334416
00000000: 0486 80be ce56 913e 910b 1cbd 7feb ab3e
00000010: d488 9bbe 80f8 843d dd9b fc3d
