Emotional_Chatbot/data.pth (torch, 5271 bytes, 6 tensors)

l1.weight f4 [8, 60]
000000 f2 2b 22 be 87 94 06 be 17 f4 f4 bd a7 85 da 3e
       -0.15837076 -0.13142596 -0.11960619 0.42680094
000010 3c 54 1a bf 00 42 cc bd 88 5b 21 bf 57 d3 ab 3d
       -0.6028478 -0.09973526 -0.6303029 0.08389919
000020 bc 54 ae 3e 83 96 3b 3e 74 64 a2 3e 56 24 8a 3e
       0.34049022 0.18319134 0.31717265 0.26980847
000030 85 4b dd bd 4d 7c 1e be 83 93 45 bd 2d ac d5 be
       -0.1080542 -0.15477104 -0.04823638 -0.41732922
000040 4d cc 6d 3e b8 53 dd 3e e8 50 f9 bd 14 82 0d be
       0.23222466 0.43227935 -0.12173635 -0.13819152
000050 75 d7 7b 3e ca fe 06 be ca 19 1a 3e 10 86 0f be
       0.24593909 -0.13183132 0.150489 -0.14015985
000060 89 0d 66 be 7b 7d 1f be d8 e1 99 be 14 d4 87 3e
       -0.22466101 -0.15575211 -0.30055118 0.2652899
000070 6e 1e 8f 3e b4 f9 99 3d 45 2c f4 bd bf b7 bc 3e
       0.27952904 0.0751833 -0.11922506 0.36858937
000080 a5 d4 3a 3f 0a 39 22 be d9 f2 06 3f f9 ce 2d bf
       0.7298072 -0.15842071 0.52714306 -0.6789394
000090 dc c6 73 be 99 b7 38 be 72 31 42 3e 94 e6 bb 3e
       -0.23806328 -0.18038787 0.18964174 0.36699355
0000a0 55 87 c5 be a5 74 bf 3e cc 19 a4 3e a7 97 9f bd
       -0.38579813 0.3739368 0.3205093 -0.07792597
0000b0 17 73 20 3d 27 57 5b 3e 93 55 18 be a4 07 10 bf
       0.03917226 0.21419965 -0.14876394 -0.5626166
0000c0 93 fa df 3e 5a a0 a9 bc cd 6d 99 3e 1f c7 59 3c
       0.4374586 -0.020706344 0.29966584 0.013292103
0000d0 e5 2b 10 bd 14 d4 8b 3d 96 35 84 3d 00 56 79 be
       -0.03519811 0.0682756 0.06455533 -0.24349213
0000e0 72 d6 34 be 74 6e 12 3c 7a c6 7a 3e 5a b0 99 3e
       -0.1765993 0.008937467 0.24489775 0.30017358
0000f0 24 ad e9 3d 62 ba 2f 3e 36 ed 7a 3e 5d b0 ad 3e
       0.11409977 0.17160943 0.24504551 0.33923617
000100 c8 9c f8 3d 5b 45 04 3e ba ed dd be 34 e3 b5 be
       0.12139279 0.12917082 -0.43345433 -0.35524905
000110 94 43 e1 3e f4 04 7a 3e 19 62 92 3e 85 95 ef 3e
       0.4399687 0.24415952 0.28590468 0.46793762
000120 f6 20 64 3e 46 5a cd 3e 56 b7 95 3e d9 d1 04 3f
       0.22278199 0.40107936 0.29241437 0.518827
000130 c4 e9 09 3f 83 b2 a9 3d a9 8d 90 bd 21 32 18 3e
       0.53872323 0.082860015 -0.070582695 0.14862873
000140 2a e7 18 be 49 7b b5 bd c9 35 7b 3e 7e a5 13 3e
       -0.14931932 -0.088614054 0.24532236 0.14418599
000150 fe b3 19 be 29 b9 15 bc 87 46 19 be 23 0d 8e 3e
       -0.15010068 -0.009138384 -0.1496831 0.27744398
000160 ee 1b e0 3e bd 61 02 3e 2e 9d 48 3e 5e 8e 0a 3f
       0.4377131 0.12732597 0.1959121 0.54123485
000170 f2 07 68 3f 0e 8c b5 3d 82 ac 80 be a1 9e ce be
       0.90637124 0.08864604 -0.25131613 -0.403554
000180 c1 3b 8b be 4f b2 02 be 78 a1 e6 3e 9b 98 fc 3e
       -0.27194026 -0.12763332 0.45045066 0.4933518
000190 4b de 90 be c6 d9 05 3f ca 71 ac 3e 9e 63 cd 3d
       -0.28294596 0.5228542 0.33680564 0.10028766
0001a0 9e f7 b6 3d a7 f3 be be b7 fb 3a 3e 47 9e d3 be
       0.08933948 -0.37295267 0.18260084 -0.41331694
0001b0 3d 2f 79 3e a1 fc 99 3e 71 1b 8b 3e 18 7c 92 bd
       0.24334426 0.30075553 0.27169374 -0.07152575
0001c0 9e 8c 02 be 13 e1 50 3e 87 a7 40 3e ad 8d a7 bd
       -0.12748954 0.20398359 0.18813907 -0.081813194
0001d0 87 6d a7 3e 64 9f 87 3e f4 99 ee 3e 2d 1e 39 3e
       0.3270075 0.26488793 0.46601832 0.18077917
0001e0 21 22 f3 3e 7f a2 97 3e 70 d8 b0 3e 28 91 6b be
       0.47486976 0.29616162 0.3454013 -0.23004591
0001f0 c4 04 cf be 38 47 9d 3e 81 62 0b 3f eb 21 f1 3e
       -0.40433323 0.30718398 0.5444718 0.4709619
000200 b2 61 8c bd 71 28 8d 3e c4 c1 20 be a2 98 d4 be
       -0.068545714 0.27569917 -0.15698916 -0.415227
000210 f2 b5 ca 3e 6c 10 ca 3e c7 d6 b0 3e bc 83 2b be
       0.39591938 0.39465654 0.34538862 -0.16749471
000220 cc 02 48 be 9d 48 c5 3e 69 b0 8f 3e 2c 47 cc 3e
       -0.19532317 0.38531962 0.28064278 0.3989805
000230 59 3f 8b 3e 8e fa 6c 3e 99 b7 83 bd ae 1b 87 3e
       0.27196768 0.23142454 -0.06431503 0.26388305
000240 5b 66 69 bd 85 ca 9a 3e 9f fb b9 3e 65 50 10 be
       -0.05698238 0.30232635 0.36324784 -0.14093168
000250 13 c3 a0 3d 95 02 52 3e aa be b7 3d 28 02 18 be
       0.078497075 0.20508797 0.08971913 -0.14844573
000260 7e b4 37 bf fa 70 d4 3e 04 bc 1a 3f e0 c0 0a 3f
       -0.71759784 0.41492444 0.6044314 0.54200554
000270 e9 6a 69 3e 9d 9a d1 3e 52 5b 73 3e 16 57 e9 be
       0.22794689 0.40938273 0.23765305 -0.45574254
000280 80 ae 95 3e f4 e7 80 be fa 76 50 bd ab 1b 58 3e
       0.29234695 -0.25176966 -0.050894715 0.21104304
000290 fc 59 79 3e c8 8c 11 3f 7e 07 af 3e 7f 0f 1a 3f
       0.24350733 0.5685544 0.34185404 0.60179895
0002a0 b9 37 02 3c fb 81 b5 3e e9 68 4b be ef ed ab 3e
       0.007947856 0.3545073 -0.19864239 0.33579966
0002b0 d0 80 83 3e ad df 3b 3e b2 dd cb 3e 6b 57 83 3e
       0.25684214 0.18347044 0.39817578 0.25652632
0002c0 c6 6c d3 3e 25 0b ae 3e fa a9 04 3e 97 3f a5 be
       0.41293925 0.33992878 0.12955466 -0.32275078
0002d0 1b 6d 4f bd 22 41 0f be 91 52 4f be fd 27 8b bb
       -0.05064116 -0.1398969 -0.2024634 -0.0042467103
0002e0 ea 54 f1 ba 71 ee 80 bd 9e 5d 1d 3f 09 c9 e1 bb
       -0.0018412147 -0.06295479 0.61470973 -0.0068904203
0002f0 1f 93 10 be 95 9e 81 3c e8 52 85 3e 11 c2 01 3e
       -0.14118622 0.015822688 0.26039815 0.12671687
000300 79 3a 7d be d5 4d 89 bd 88 94 04 be 3a 49 92 bc
       -0.24729337 -0.067042984 -0.12947285 -0.017857183
000310 a7 4d 9c 3e 04 4c 30 bb 5d 81 39 3e 2f 61 51 be
       0.30527994 -0.0026900778 0.18115754 -0.20447229
000320 54 a9 ae bd 90 45 62 3e 5a cc 30 3e e2 97 1d bd
       -0.085283905 0.22096848 0.17265454 -0.038474925
000330 10 bc 9a 3e 00 97 a2 3e 29 33 40 3e e9 6c 9b 3d
       0.30221605 0.3175583 0.18769516 0.07589132
000340 4e 29 a6 3e f1 09 ef bb 5a cf 0e 3c 14 a9 91 3e
       0.32453388 -0.0072948863 0.008716429 0.2844931
000350 fb 76 1b 3f de dc 0a 3c d8 c1 01 bf 6c 92 0a 3f
       0.60728425 0.00847551 -0.5068641 0.5412967
000360 7e 1e 68 3e ec 58 85 3e e6 d8 6f 3e 65 3f 93 3e
       0.22667882 0.26044405 0.23422584 0.28759304
000370 11 4c aa 3e fc f0 bf 3c 15 d5 f3 3e 6d dd 0c be
       0.3326116 0.02343034 0.47623506 -0.13756342
000380 bc b3 c6 bd 66 c1 01 bf e3 8c 48 be 13 e2 21 3f
       -0.0970225 -0.5068573 -0.19584994 0.63235587
000390 95 52 9c 3e 77 ce 05 bd 12 3c 34 3e 00 d2 c9 3b
       0.30531755 -0.032667603 0.1760104 0.006159067
0003a0 6d 1e 57 3e 19 d5 18 be f8 07 c2 bd 52 7d df 3d
       0.210077 -0.1492504 -0.09474176 0.10912575
0003b0 e7 17 af bd 8a 44 84 bc 3a 26 63 3a aa c3 a8 3e
       -0.08549481 -0.016145963 0.0008665059 0.3296178
0003c0 6b 70 2a 3e 84 0e 26 3e 40 4b 6a 3d 9b 52 83 bd
       0.16644447 0.16216475 0.05720067 -0.0641224
0003d0 62 0f 56 3f a0 02 03 3e e6 97 96 be fb 98 fb be
       0.8361722 0.1279397 -0.29412764 -0.49140152
0003e0 bb 9f c9 bd 36 c3 5f be 45 3a 8e 3e d2 6a 7d bd
       -0.09844919 -0.21851811 0.2777883 -0.06186945
0003f0 7a 3a 84 3e d6 9b 2a 3e 0a 66 66 3d 51 16 43 3f
       0.25825864 0.16661009 0.056249656 0.7620593

l1.bias f4 [8]
000000 f2 24 2e 3f 4c 8e de 3e 9c 64 47 3f 5b c2 01 3f
       0.68025124 0.4346794 0.7788789 0.5068719
000010 d0 97 96 3e 1d 2d 35 3f 18 31 fb 3e 8c 9a 65 3e
       0.294127 0.7077196 0.49060893 0.22422236

l2.weight f4 [8, 8]
000000 2c 3c 93 bf e6 88 ad 3e 1e 5f 7c 3f 34 2e 13 3f
       -1.1502738 0.33893508 0.9858264 0.57492375
000010 19 c5 8b be 1c bf 07 3f 3a 96 27 bf 5c 84 80 bf
       -0.2729881 0.53025985 -0.654636 -1.0040393
000020 43 0f 5c 3f 13 83 5e 3f 8a 0f 52 bf 9d f1 1c 3f
       0.8596079 0.86918753 -0.8205496 0.6130617
000030 36 01 3b 3f 5c 0a 2b 3f ef fd 16 3f b3 27 01 3f
       0.7304872 0.6681268 0.5898122 0.504512
000040 6c d3 55 3e 27 f5 5e bf 64 9e 72 3f 9d e3 03 3f
       0.20881432 -0.8709282 0.94772935 0.51519185
000050 f6 35 4b bf 37 12 13 3f da e7 0f 3e 8d 70 a8 be
       -0.7937921 0.5744967 0.14053288 -0.3289837
000060 dc 18 10 3f 30 6d c8 3e 1b d3 1f 3f 3e 98 16 bf
       0.5628793 0.39145803 0.62431496 -0.58826053
000070 1b 7a 4d bf 85 c8 73 3d 15 b3 6e 3f 5d 24 22 3f
       -0.80264443 0.059517402 0.9324201 0.63336736
000080 a0 f1 c1 3e 18 d5 91 bd fb 95 7f 3f 18 32 60 bf
       0.37879658 -0.071207225 0.9983823 -0.87576437
000090 9f a5 2a 3f b0 f1 a0 be 71 ab 25 3f 2e 68 b8 be
       0.6665897 -0.31434393 0.64714724 -0.36016983
0000a0 f3 3b 68 3e 14 ee d7 3e b7 41 19 3e 4f 4a 59 3f
       0.22679119 0.42173827 0.14966474 0.8487901
0000b0 50 10 3b 3e c1 44 2b 3f 9b c9 46 bf 9a 42 54 bf
       0.18267941 0.66901785 -0.77651376 -0.82914126
0000c0 be 29 5f bf 72 fe 69 3f 54 5d 13 3f b3 a7 ae be
       -0.8717307 0.9140388 0.5756428 -0.3411232
0000d0 21 f0 4f 3f 43 64 2a bf 6a bf 8a be 14 9e ff 3e
       0.8122578 -0.6655924 -0.27099162 0.49925292
0000e0 4e ed 2c 3e 08 5e ab bd c8 38 19 be b5 b1 02 be
       0.168874 -0.083675444 -0.14963067 -0.12763102
0000f0 e0 92 14 be 2c 0c 88 bd 14 98 b4 3d 00 ce 5c 3a
       -0.14509153 -0.066429466 0.08818069 0.00084230304

l2.bias f4 [8]
000000 0b 23 c5 3e 70 0d 22 3e d5 c1 01 3f 7d 9b 64 bd
       0.38503298 0.15825438 0.5068639 -0.055812348
000010 7b 59 0d 3f 62 ff 47 3e df 7d ed 3d 4f eb 99 be
       0.5521466 0.19531015 0.11596274 -0.3006234

l3.weight f4 [6, 8]
000000 9d 41 b8 bf 20 8d a9 3d b6 90 22 bf a8 01 94 bf
       -1.4395024 0.082788706 -0.6350206 -1.1563005
000010 ff a3 a4 3e bd e7 4c bf 6f f7 f7 3e 4d e5 9b be
       0.3215637 -0.80041105 0.48430964 -0.3044838
000020 82 57 4b bf bd 3b 36 3f df cd e6 be 09 cf 77 bf
       -0.794304 0.71184903 -0.45078942 -0.96800286
000030 c6 a7 ea be b5 38 45 3f 4f c4 51 bf a0 3d 55 3d
       -0.45831126 0.77039653 -0.8194017 0.052060723
000040 5f c5 9f bf 12 95 05 bf 25 ce 08 3f e5 32 6a 3f
       -1.2482108 -0.5218059 0.5343955 0.9148391
000050 6f ed 42 3f 0a be 70 bf 84 03 67 bf 36 8c f3 bd
       0.76143545 -0.94039977 -0.9023974 -0.118919775
000060 82 c7 e3 3e 80 3f 8a bf 00 54 14 bf dd 86 92 be
       0.4448815 -1.0800629 -0.57940674 -0.28618518
000070 ad 61 9d 3c 01 bb 0d 3d 45 07 ba 3e 57 f5 94 be
       0.019211615 0.03460217 0.3633367 -0.2909343
000080 e7 93 90 3f 4e a1 04 bf 8d b6 61 3f af 46 86 bf
       1.1295136 -0.5180863 0.88169175 -1.0490321
000090 e2 62 c6 be b4 f6 42 3f 54 8a 7b bf cf 17 b1 3e
       -0.38747317 0.7615769 -0.98257947 0.34588477
0000a0 9e a4 42 bf 37 db f9 3e 61 86 51 bf 81 94 39 3f
       -0.76032436 0.4880006 -0.8184567 0.72492224
0000b0 c3 34 85 bf 27 b6 65 bf 44 66 6d bf aa 0e 91 be
       -1.0406727 -0.8973107 -0.9273417 -0.283315

l3.bias f4 [6]
000000 60 e0 88 3e aa b3 b1 bc 71 4a ee bc 12 86 07 bf
       0.26733685 -0.021692116 -0.02908823 -0.5293895
000010 c7 84 11 3d e2 71 6e be
       0.035527017 -0.2328563
