Analytical_Chatbot/data.pth (torch, 5271 bytes, 6 tensors)

l1.weight f4 [8, 60]
0	0x3ed322d9	0.41237524
1	0x3ea7b646	0.3275625
2	0x3ec37b74	0.38180125
3	0xbe1680c9	-0.14697565
4	0xbec49219	-0.38392714
5	0x3e66e002	0.2254639
6	0x3ea2e9e7	0.31819078
7	0x3f0dd502	0.5540315
8	0xbe68cf26	-0.22735271
9	0x3e76eef6	0.24114594
10	0x3db35812	0.087570325
11	0xbeb53dd4	-0.35398734
12	0x3ecf2b57	0.40462753
13	0x3e9099de	0.2824239
14	0x3eb6ade3	0.3567954
15	0xbe7099c0	-0.23496151
16	0xbe3b5e84	-0.18297774
17	0x3eea6019	0.45776442
18	0x3e43acbc	0.19108862
19	0x3e7d7f94	0.24755698
20	0x3ec6b5c3	0.38810548
21	0x3e8457ad	0.2584814
22	0xbded636f	-0.11591231
23	0x3ebb8cb4	0.36630785
24	0x3e4b325f	0.19843434
25	0x3e65423c	0.22388548
26	0x3def2fa0	0.116790056
27	0xbdd8625e	-0.10565637
28	0x3c0a7f0d	0.008453143
29	0x3e14fbd8	0.14549196
30	0x3e474cad	0.19462843
31	0xbca82295	-0.020524302
32	0xbf14a545	-0.5806468
33	0x3eb7f80d	0.35931435
34	0x3f2b11b2	0.66823876
35	0x3e8ca6f9	0.2747114
36	0x3eab0975	0.33405653
37	0x3e55cedc	0.20879692
38	0x3ed6f879	0.41986445
39	0xbe39cf7a	-0.18145552
40	0x3e8f6f71	0.2801471
41	0xbead1aa4	-0.33809388
42	0x3cd4e92f	0.025990097
43	0x3ec8decb	0.39232478
44	0x3ecb9cfd	0.3976821
45	0x3f1f9452	0.62335694
46	0x3e96237c	0.29323947
47	0x3ef26608	0.4734347
48	0xbe15f2a3	-0.1464334
49	0x3f0628bf	0.52405924
50	0xbeba22a8	-0.36354566
51	0x3eadfb47	0.33980772
52	0x3e60f604	0.21968848
53	0x3edab9f9	0.4272001
54	0x3edc7ad1	0.4306245
55	0x3dbd4246	0.09241156
56	0x3eb00362	0.3437758
57	0x3ead9e30	0.3390975
58	0xbe50f57f	-0.2040615
59	0x3d95c4a7	0.07312899
60	0x3ed9b78b	0.42522845
61	0x3efa21c3	0.48853883
62	0x3f01bff4	0.5068352
63	0x3eb0cce8	0.3453133
64	0x3f21f4ce	0.6326417
65	0x3eb29053	0.34875736
66	0xbe903e9d	-0.2817277
67	0xbec7adb9	-0.38999727
68	0x3ecbed13	0.3982931
69	0x3d140823	0.036140572
70	0x3d80cbc8	0.06288868
71	0x3f1c68b3	0.6109726
72	0x3e9d6d9c	0.30747688
73	0x3f0dad18	0.55342245
74	0x3ed635cd	0.41837922
75	0x3f462e9e	0.7741488
76	0x3eaa6d18	0.33286357
77	0xbe0a237e	-0.13490102
78	0xbde5208d	-0.11187849
79	0x3ede7c45	0.43454185
80	0xbd2f0133	-0.042725753
81	0xbe4a17bf	-0.19735621
82	0x3e858295	0.2607619
83	0x3ec698ee	0.3878855
84	0xbd918e53	-0.07107224
85	0xbe038538	-0.12843788
86	0xbdd67829	-0.104721375
87	0x3e6e8415	0.23292573
88	0x3ebd32d6	0.36952847
89	0xbcfbefc2	-0.030753974
90	0x3f0bc76b	0.5460116
91	0x3e3da5a2	0.18520215
92	0x3f19e1aa	0.6010996
93	0x3e88320f	0.26600692
94	0xbe90428e	-0.28175777
95	0xbe9048e1	-0.28180602
96	0xbc89d958	-0.01682727
97	0xbdc62434	-0.09674874
98	0x3f1fe131	0.6245299
99	0x3ebf6b68	0.37386632
100	0xbcf9346a	-0.0304205
101	0x3ecefe2f	0.40428302
102	0x3e5e98f7	0.21738039
103	0x3e5bb5f2	0.21456125
104	0x3ea59eed	0.32347813
105	0xbcf75ed1	-0.03019658
106	0x3ee57946	0.44819087
107	0xbe9047d9	-0.28179815
108	0x3d5e1dae	0.054227524
109	0x3f12e3f7	0.57379097
110	0x3eaca7f2	0.33721882
111	0x3e091b23	0.13389258
112	0x3d11aee0	0.035567164
113	0x3ea50672	0.3223148
114	0x3ed537cb	0.4164413
115	0xbdf6b067	-0.12045365
116	0x3f0806e7	0.5313553
117	0x3eada4ce	0.33914798
118	0x3eea9c82	0.4582253
119	0x3dcc5d62	0.09978749
120	0x3e0ef8be	0.13962075
121	0xbda71577	-0.08158391
122	0xbe27c7d7	-0.16384827
123	0x3e9f0b3e	0.31063265
124	0x3c27b049	0.010234901
125	0xbdfa705f	-0.12228464
126	0x3f3789f3	0.7169487
127	0x3e07482a	0.13211122
128	0x3ef005bd	0.46879378
129	0x3e804ab7	0.25057003
130	0x3d13c822	0.036079533
131	0x3ed7f8d2	0.42182022
132	0xbd516af8	-0.051127404
133	0xbd920eca	-0.07131727
134	0xbdaa7f04	-0.083250076
135	0xbd3cc3c0	-0.04608512
136	0xbbb2be87	-0.0054548415
137	0xbb23e5b1	-0.0025008733
138	0x3e899877	0.26874134
139	0xbd35789b	-0.04430447
140	0xbe927ec0	-0.28612328
141	0x3d8d7260	0.06906581
142	0x3dc19b2b	0.09453424
143	0xbc91bd35	-0.017790416
144	0x3eb85490	0.36002016
145	0x3e8b72ca	0.27236015
146	0x3e89e654	0.2693354
147	0x3d1036fa	0.03520868
148	0x3f036487	0.5132527
149	0x3eb77e4b	0.3583854
150	0x3e5b9faf	0.21447633
151	0x3f00f8b5	0.50379497
152	0xbeecdffe	-0.46264642
153	0xbdd8461a	-0.10560246
154	0xbeecdf89	-0.46264294
155	0x3f3de809	0.7418218
156	0x3e0d2578	0.13783824
157	0x3e7101d7	0.23535858
158	0x3ba16a72	0.0049260193
159	0xbdd1bf58	-0.10241574
160	0x3ea42d50	0.3206582
161	0x3ee78a8b	0.45222887
162	0x3dd60d4c	0.10451755
163	0xbd80b7c6	-0.06285052
164	0x3db9c14e	0.09070073
165	0xbeecd799	-0.46258238
166	0xbccdcf68	-0.025123313
167	0x3f2129e8	0.6295457
168	0xbe47d43c	-0.19514555
169	0x3c7d0756	0.015443644
170	0x3ef3794b	0.47553477
171	0xbe598744	-0.21243006
172	0x3ddfb0de	0.109224066
173	0xbd8c7618	-0.06858462
174	0x3dce242c	0.10065493
175	0x3e5ef424	0.2177282
176	0xbe3a0f1e	-0.18169829
177	0xbe0ecdec	-0.1394574
178	0xbeb6363f	-0.3558826
179	0xbcac1625	-0.021006653
180	0x3e94e388	0.29079843
181	0x3e231dc6	0.15929326
182	0x3d0cec14	0.03440483
183	0xbe58f265	-0.21186216
184	0xbe8f2c28	-0.27963376
185	0x3e52a40c	0.20570391
186	0x3f29bea4	0.6630652
187	0xbd99e079	-0.07513518
188	0xbedaa034	-0.4270035
189	0xbd714ed3	-0.058913063
190	0x3ed41673	0.41423377
191	0xbe8993a0	-0.2687044
192	0x3db7af23	0.089689516
193	0x3e2bb5a9	0.16768517
194	0x3e6a9b23	0.22910742
195	0x3bacefc6	0.0052776067
196	0x3ee538a4	0.44769776
197	0x3e575225	0.2102743
198	0x3e942cc4	0.28940403
199	0x3cfad9d7	0.030621452
200	0xbe72123a	-0.23639765
201	0x3e9bc6b6	0.30425042
202	0x3ebdab10	0.37044573
203	0x3e47d536	0.19514927
204	0x3edefef3	0.43553886
205	0x3e93a63f	0.28837773
206	0x3e5e5b3d	0.21714492
207	0x3e626ebf	0.22112559
208	0x3e74f35d	0.2392096
209	0xba88425b	-0.0010395752
210	0x3e45958d	0.1929533
211	0xbd739798	-0.059470743
212	0x3f560684	0.8360369
213	0xbca19d09	-0.0197282
214	0xbecba39f	-0.3977327
215	0x3f455668	0.7708497
216	0x3e93c822	0.28863627
217	0x3ec49a7a	0.38399106
218	0x3e7434af	0.23848222
219	0x3eb077cb	0.34466395
220	0x3ea95500	0.33072662
221	0xbea87f13	-0.3290945
222	0x3ef2faec	0.47457063
223	0x3e1d021f	0.1533284
224	0x3e00e648	0.12587845
225	0xbf39e499	-0.7261444
226	0x3dd42373	0.10358324
227	0x3f2e39db	0.6805703
228	0x3e9d836f	0.30764338
229	0x3e58352b	0.21114032
230	0xbe7feb46	-0.24992093
231	0xbe54e308	-0.2078973
232	0x3e76f75f	0.24117802
233	0x3e245f8e	0.16052076
234	0x3d5a21bc	0.053254828
235	0x3e4e2fe8	0.20135462
236	0x3d069402	0.032855995
237	0x3d5032d9	0.050829742
238	0x3da32624	0.07966259
239	0x3eb5b864	0.3549224
240	0xbe29852b	-0.16554706
241	0xbe56091b	-0.20901911
242	0xbcdaedec	-0.026724778
243	0xbe7cb822	-0.24679616
244	0xbe8a235c	-0.26980102
245	0xbdc1e518	-0.09467524
246	0xbf04ad11	-0.5182658
247	0x3ce116e5	0.027476737
248	0xbdb78f7c	-0.08962914
249	0xbd5e0ed7	-0.05421337
250	0x3e985190	0.29749727
251	0xbe51f6f1	-0.20504357
252	0xbe07abc7	-0.13249122
253	0x3cbf28d0	0.02333489
254	0xbdeb9c9c	-0.1150448
255	0xbcbeef72	-0.023307536

l1.bias f4 [8]
0	0x3f3d83a0	0.7402897
1	0x3e904b4f	0.28182456
2	0x3eecddc5	0.46262947
3	0x3f3a53b1	0.7278395
4	0x3f04ecad	0.5192364
5	0x3f29fa2a	0.66397345
6	0x3f14ff1d	0.5820177
7	0x3f2fe676	0.6871103

l2.weight f4 [8, 8]
0	0x3f20ac57	0.6276297
1	0xbee51465	-0.44742122
2	0x3f835fc4	1.02636
3	0x3f3ab81d	0.72937185
4	0xbf176d98	-0.591516
5	0xbf061694	-0.523782
6	0x3f43cb06	0.76481664
7	0x3f24a6ee	0.64317214
8	0xbed269bd	-0.41096297
9	0x3f1778a0	0.59168434
10	0x3f1828a6	0.59437025
11	0xbf3ff15a	-0.7497765
12	0xbefc2185	-0.49244323
13	0x3f4a4a52	0.79019654
14	0x3efb4018	0.49072337
15	0xbe860209	-0.26173428
16	0x3f8a8152	1.0820715
17	0x3e30ef45	0.17278774
18	0xbf4bbce9	-0.7958513
19	0xbf28a09a	-0.6587006
20	0xbe2b585c	-0.16732925
21	0x3efbc791	0.49175695
22	0x3e8e1471	0.2774997
23	0x3f6d5a1a	0.9271561
24	0x3e8c6536	0.27420968
25	0xbe657c8e	-0.22410795
26	0xbf83c5b1	-1.0294706
27	0xbc127e35	-0.008941223
28	0x3f8a008a	1.0781415
29	0x3f739de2	0.95162785
30	0x3e3d5fab	0.18493526
31	0x3f097fee	0.5371083
32	0x3ea131b3	0.3148323
33	0x3f897fb3	1.0742096
34	0xbebd5417	-0.36978218
35	0x3f4d4654	0.8018544
36	0x3f5fc637	0.87411827
37	0x3ef9e146	0.48804682
38	0xbf19e460	-0.601141
39	0xbe6f48eb	-0.2336766
40	0xbd95e676	-0.073193476
41	0x3d514d65	0.0510992
42	0xbe74dcd6	-0.23912367
43	0xbea39bae	-0.31954712
44	0xbcd8e0a1	-0.026474299
45	0xbe1b0366	-0.15138015
46	0xbe179b70	-0.14805388
47	0x3e628abc	0.22123235
48	0xbccddece	-0.025130656
49	0x3f961823	1.1726116
50	0x3fa2ea68	1.2727785
51	0x3e120a7b	0.1426181
52	0xbf8d710b	-1.1050123
53	0x3e326b60	0.17423773
54	0x3f3d44d4	0.7393315
55	0xbf0890f6	-0.5334619
56	0x3f20910b	0.6272132
57	0xbf670d2a	-0.9025446
58	0x3f5b17d9	0.85583264
59	0x3ec8c680	0.39213943
60	0xbed9cd8c	-0.42539632
61	0x3d84566c	0.06461796
62	0x3f2b6797	0.6695494
63	0x3f5010e3	0.8127577

l2.bias f4 [8]
0	0x3ef3a01d	0.47583094
1	0x3ec752d4	0.3893038
2	0x3d8c0292	0.06836428
3	0x3ee4c010	0.44677782
4	0x3f067306	0.5251926
5	0xbcbf4352	-0.02334753
6	0x3c3e41e7	0.011612392
7	0x3ea338ac	0.31879175

l3.weight f4 [6, 8]
0	0xbf947f38	-1.1601324
1	0x3ededc6f	0.43527552
2	0x3e6d593d	0.23178573
3	0x3e12d680	0.14339638
4	0xbc73a85e	-0.014871685
5	0xbea3387a	-0.31879026
6	0x3e89e745	0.26934257
7	0xbf127a78	-0.5721812
8	0xbf20aee5	-0.6276687
9	0xbf4bf73d	-0.7967413
10	0xbf915005	-1.1352545
11	0x3f4cc81d	0.7999285
12	0x3f537005	0.82592803
13	0xbe6f082f	-0.23342966
14	0xbf51227e	-0.81693256
15	0xbf62d502	-0.88606274
16	0xbdb38350	-0.0876528
17	0xbebc38dc	-0.3676213
18	0x3f505f93	0.81395835
19	0x3f1d71d3	0.61501807
20	0xbef179e9	-0.47163323
21	0xbe1798ba	-0.14804354
22	0xbfbe2d0a	-1.4857495
23	0x3e97e17c	0.29664218
24	0xbe75419b	-0.23950808
25	0xbf3af802	-0.7303468
26	0x3ed62a17	0.41828987
27	0xbf6cea84	-0.9254534
28	0x3ea28577	0.3174245
29	0x3e34e7c7	0.17666541
30	0x3ef52595	0.47880235
31	0xbf587b56	-0.84563196
32	0x3f69bf59	0.913076
33	0xbf55edc3	-0.8356592
34	0xbe76ca8b	-0.24100702
35	0xbf486bb4	-0.7828934
36	0xbee4410b	-0.44580874
37	0x3e860a40	0.26179695
38	0x3e6086c7	0.21926413
39	0x3f20bcdb	0.6278817
40	0x3c2856be	0.010274587
41	0x3f39e57d	0.72615796
42	0xbf0ed9d3	-0.55801123
43	0xbf4200bc	-0.7578237
44	0xbf1ef0ff	-0.6208648
45	0x3e3dde99	0.18541946
46	0x3f040256	0.51566064
47	0x3c44ca87	0.012011177

l3.bias f4 [6]
0	0xbed23947	-0.41059324
1	0x3e8cc001	0.27490237
2	0x3d667829	0.056266937
3	0xbc703026	-0.014659917
4	0x3e33d8ef	0.17563222
5	0xbdeb573f	-0.1149125
