Analytical_Chatbot/data.pth (torch, 5271 bytes, 6 tensors)

l1.weight f4 [8, 60]
0	0x3e8fe58c	0.28104818
1	0x3e1ac7a9	0.15115227
2	0x3e6c551a	0.23079339
3	0xbebf1242	-0.37318617
4	0xbdceaa78	-0.10091108
5	0x3dca078a	0.09864719
6	0x3f264e4f	0.6496324
7	0x3efb9c77	0.4914281
8	0xbe2bd042	-0.16778663
9	0x3e468cbe	0.19389626
10	0x3eb87f61	0.36034682
11	0xbe98f74f	-0.2987618
12	0x3e0e5b6e	0.13902065
13	0x3e81a7ec	0.25323427
14	0x3e921388	0.28530526
15	0x3e222fd5	0.15838559
16	0x3e9d04af	0.30667636
17	0x3ea974f5	0.33097044
18	0x3e3cd172	0.18439272
19	0x3e167f9a	0.14697114
20	0x3e850282	0.25978476
21	0x3e020bfb	0.12699883
22	0x3e9ff7d5	0.31243768
23	0x3e7d22e4	0.24720341
24	0x3eb618e7	0.35565874
25	0x3ea04418	0.3130195
26	0x3de3dcf6	0.11126129
27	0x3ea51d9b	0.3224915
28	0x3e3b44c6	0.18287954
29	0x3df4aea2	0.11947371
30	0x3ed5b238	0.41737533
31	0xbe40300c	-0.18768328
32	0x3edf944c	0.4366783
33	0x3d85ce57	0.06533497
34	0x3ec3b702	0.3822556
35	0x3f2cc5ef	0.6748952
36	0x3ecdd66b	0.4020265
37	0x3e51d940	0.2049303
38	0x3e95c222	0.29249674
39	0x3ea75af0	0.32686567
40	0x3e56304d	0.20916863
41	0xbeab592e	-0.33466476
42	0x3e8b8bf9	0.27255228
43	0x3e98a75d	0.29815188
44	0x3e0a9fdb	0.13537543
45	0x3f10e603	0.5660097
46	0x3ea8b0c5	0.32947364
47	0x3f28ea20	0.65982246
48	0x3e65b7f8	0.2243346
49	0x3eb78f0b	0.3585132
50	0xbee0f97e	-0.43940347
51	0x3eac938f	0.33706328
52	0x3e1dbc1b	0.15403788
53	0x3d437b84	0.047725216
54	0x3db648fe	0.08900641
55	0x3e74f38e	0.23921034
56	0x3eb3c734	0.35112917
57	0x3dd4361a	0.103618816
58	0x3db48637	0.08814662
59	0x3ebf98b0	0.3742118
60	0x3e3be281	0.18348123
61	0xbe14881c	-0.14505047
62	0xbbe0f3c7	-0.006864998
63	0xbe1672bf	-0.1469221
64	0xbe9c2944	-0.30500233
65	0xbdae4267	-0.08508759
66	0x3f34e3bf	0.7066001
67	0x3e93f9b6	0.28901452
68	0xbeba74b4	-0.36417162
69	0x3c531be8	0.012885071
70	0x3dce70ea	0.100801304
71	0xbeba4b8a	-0.36385757
72	0xbe228e81	-0.15874673
73	0xbdf474d6	-0.11936347
74	0xbe13ac6f	-0.14421247
75	0xbdeeb96f	-0.116564624
76	0x3dd57436	0.10422556
77	0x3e9d1fb2	0.30688244
78	0x3eb95ed9	0.36205176
79	0x3cedab66	0.029012393
80	0xbd4a7f4e	-0.049437813
81	0x3e9d6bb5	0.30746236
82	0x3e66ed75	0.2255152
83	0xbe19be82	-0.15014079
84	0x3ec6a09c	0.3879441
85	0x3eb46c67	0.35238954
86	0x3ebd5899	0.36981657
87	0x3e8cf4ca	0.2753051
88	0x3e33dc3f	0.17564486
89	0x3d377e17	0.044797983
90	0x3e5d58f5	0.21615966
91	0x3e21e8b7	0.1581143
92	0xbdf231b9	-0.1182589
93	0xbca28af5	-0.01984165
94	0xbea0acd7	-0.31381866
95	0x3f2a74d4	0.66584516
96	0x3e81ba05	0.25337234
97	0x3ec8fb2d	0.39254132
98	0x3d2b1aea	0.041773714
99	0xbe896853	-0.26837406
100	0x3ea639bc	0.32465923
101	0xbe519675	-0.20467551
102	0x3e7f01b4	0.24902993
103	0xbe1e942d	-0.15486212
104	0xbd3466ed	-0.04404347
105	0xbe4bd383	-0.19904904
106	0xbd50552a	-0.05086247
107	0x3f4d4adc	0.8019235
108	0xbca120b4	-0.019668914
109	0xbe1c0854	-0.15237552
110	0xbeb4b54a	-0.35294563
111	0xbe5016f3	-0.20321254
112	0x3e376710	0.17910409
113	0xbc4709a1	-0.012148292
114	0xbdd4e00c	-0.10394296
115	0x3e540ea0	0.20708704
116	0xbe5221b5	-0.2052067
117	0xbcdbc566	-0.026827525
118	0xbe564b88	-0.2092725
119	0x3d752e6f	0.059858736
120	0xbe5cef7c	-0.21575731
121	0xbd4a537d	-0.049396027
122	0xbe0c4761	-0.13699104
123	0x3f1df990	0.6170893
124	0xbdbd1fe1	-0.09234596
125	0x3d1f33b6	0.038867675
126	0x3f1335e9	0.57504135
127	0x3eb2d604	0.34928906
128	0x3ecce38c	0.40017354
129	0x3ee36db0	0.44419622
130	0xbdb7ae5d	-0.08968804
131	0x3f1834fc	0.5945585
132	0xbe06639e	-0.13123938
133	0xbe39e1f4	-0.181526
134	0xbd3ff633	-0.046865653
135	0xbde4b2a7	-0.11166888
136	0xbf0d5e61	-0.55222136
137	0x3edbe7fb	0.42950425
138	0x3ec61757	0.38689682
139	0xbdc1b54b	-0.09458407
140	0x3e9c4ed3	0.30528888
141	0x3e5df6ea	0.21676221
142	0x3be33033	0.006933236
143	0xbc38e815	-0.011285801
144	0xbe965fd8	-0.29369998
145	0x3eac99ed	0.33711186
146	0x3c36f916	0.011167785
147	0xbd579e3f	-0.05264115
148	0x3ee6e266	0.45094603
149	0x3ecd8070	0.40137053
150	0x3e2cff73	0.16894321
151	0x3f16f81d	0.5897234
152	0xbf4c3ad7	-0.7977728
153	0x3d87603a	0.06610151
154	0x3f23e31c	0.64018416
155	0x3f0accfd	0.5421904
156	0xbd6ae0d0	-0.057343304
157	0x3e8444fc	0.2583388
158	0xbe452785	-0.19253357
159	0xbea558e8	-0.32294393
160	0xbd214eda	-0.03938184
161	0x3ed17587	0.4090998
162	0xbdda6a07	-0.10664754
163	0x3bedd709	0.0072583
164	0x3e0eabb4	0.13932687
165	0x3f386e4c	0.720433
166	0xbd7169bc	-0.058938727
167	0x3eace0d8	0.33765292
168	0x3de140c4	0.10998681
169	0xbe457c64	-0.19285733
170	0x3edcd243	0.43129167
171	0x3ed1d456	0.40982312
172	0x3eac7ddb	0.3368977
173	0xbd070976	-0.032968007
174	0x3d314a98	0.04328403
175	0x3ced9d78	0.029005751
176	0xbd58964b	-0.052877706
177	0xbcd15346	-0.025552403
178	0x3e85fa54	0.26167548
179	0xbe2c4a82	-0.16825297
180	0xbe2e2d18	-0.1700939
181	0xbddb9ef9	-0.10723681
182	0xbe0373d6	-0.12837157
183	0xbd8a0247	-0.067387156
184	0x3ea0511b	0.3131188
185	0xbd1a574a	-0.0376809
186	0x3f467077	0.7751536
187	0xbeb52bd4	-0.35385
188	0xbe3c00a1	-0.18359615
189	0xbe2e655f	-0.17030858
190	0x3ddeef04	0.10885432
191	0xbe3bfc63	-0.18357997
192	0x3d817aac	0.06322226
193	0x3cfb8637	0.030703647
194	0xbde387cc	-0.111098856
195	0x3ee3c9a9	0.44489792
196	0x3e9c6367	0.30544588
197	0xbdd5a00e	-0.10430919
198	0x3d8ddfad	0.069274284
199	0xbe2972ff	-0.16547774
200	0x3cf3340a	0.0296879
201	0x3d0d470f	0.034491595
202	0x3e9bfe0c	0.3046726
203	0xbc825100	-0.015907764
204	0x3f2e9238	0.6819186
205	0x3c99bd48	0.018767014
206	0x3e881470	0.26578093
207	0x3e745247	0.23859511
208	0x3de9f3c7	0.1142345
209	0xbe266c42	-0.16252235
210	0x3e07971c	0.13241237
211	0xbcc1b1d9	-0.023644375
212	0x3f3f1023	0.74634
213	0x3d00b7b2	0.031425186
214	0xbeafff3a	-0.3437441
215	0x3f3fdb3e	0.7494391
216	0x3e4619b0	0.19345737
217	0xbd02ee1c	-0.03196536
218	0x3e034004	0.12817389
219	0x3e70a5ff	0.23500822
220	0x3e62070a	0.22072998
221	0xbd0893aa	-0.03334395
222	0x3ec29f4d	0.38012162
223	0xbe1c5f3c	-0.15270704
224	0xbe04cb6c	-0.12968224
225	0xbeaf4f5f	-0.34240243
226	0xbe1e0061	-0.15429832
227	0x3ee58c83	0.44833764
228	0x3ea557b0	0.32293463
229	0xbe0c4a1f	-0.1370015
230	0xbde5a312	-0.11212744
231	0x3d5473e5	0.05186834
232	0x3e2113c1	0.15730192
233	0xbd956f79	-0.07296652
234	0xbe261d42	-0.16222098
235	0x3dfad5f5	0.1224784
236	0xbd753b3c	-0.059870943
237	0x3bb0b000	0.0053920746
238	0x3eefd7f1	0.46844438
239	0x3e9aa5f9	0.30204752
240	0x3f041198	0.51589346
241	0x3f0b02ca	0.5430113
242	0x3edd7142	0.4325047
243	0xbeb54c95	-0.3540999
244	0xbf07788b	-0.5291831
245	0x3e7ded4a	0.2479755
246	0x3f1b72dc	0.60722136
247	0x3ea9b92d	0.3314909
248	0xbe1aa1de	-0.1510081
249	0x3de9543d	0.1139302
250	0x3ce9a118	0.028519198
251	0xbea46f8d	-0.32116356
252	0x3ec51ea2	0.38499933
253	0x3efa218a	0.48853713
254	0x3ea5542f	0.3229079
255	0xbde305d3	-0.11085095

l1.bias f4 [8]
0	0x3f582b6a	0.84441245
1	0x3f1d1879	0.6136547
2	0x3f4c42b3	0.79789275
3	0x3eaffb99	0.3437164
4	0x3f34cf1d	0.7062853
5	0x3ed7a1ce	0.42115635
6	0x3ec0077e	0.37505716
7	0x3efb5d36	0.49094552

l2.weight f4 [8, 8]
0	0x3f58137b	0.84404725
1	0x3e50c5af	0.2038791
2	0x3f6dff89	0.9296804
3	0xbf0176df	-0.5057201
4	0x3f2c29b6	0.67251146
5	0xbeef2aea	-0.46712428
6	0xbf02c995	-0.5108884
7	0x3fab1f69	1.3368961
8	0x3e0b0684	0.13576704
9	0x3f67010e	0.90235984
10	0x3e2fc2d5	0.17164166
11	0x3f5eb1d4	0.86990094
12	0xbe106984	-0.14102751
13	0x3f47a71a	0.7798935
14	0x3f1da773	0.6158363
15	0xbf6e71ea	-0.9314257
16	0x3f1ec579	0.6202007
17	0x3e2c0d4e	0.1680195
18	0x3f891217	1.0708646
19	0x3f2b894f	0.6700639
20	0xbee05e81	-0.438221
21	0x3f4a5639	0.79037815
22	0x3f7fe8f1	0.99964815
23	0x3f6ee19e	0.93313015
24	0x3f4ba8e6	0.79554594
25	0x3d3ddebd	0.046354998
26	0xbf50fa0e	-0.81631553
27	0x3f3222ab	0.6958415
28	0x3f30edbd	0.6911276
29	0x3f575e84	0.84128594
30	0x3f18304e	0.5944871
31	0xbef0ca05	-0.4702913
32	0x3f03e982	0.5152818
33	0x3f6eae4d	0.9323471
34	0x3f6290a8	0.8850198
35	0xbeeb1edc	-0.4592198
36	0x3f406505	0.75154144
37	0xbe1f191d	-0.15536924
38	0xbf3afdf7	-0.7304377
39	0xbe4f840f	-0.2026522
40	0xbf12efe2	-0.5739728
41	0xbeb05293	-0.34438
42	0x3f403453	0.7507984
43	0xbe033ea5	-0.12816866
44	0xbf0220c7	-0.50831264
45	0x3f2d0c6f	0.675971
46	0x3f510b98	0.81658316
47	0xbf3270b3	-0.69703215
48	0x3f054483	0.52057666
49	0x3f4bdcce	0.79633796
50	0xbf1c3225	-0.61014014
51	0x3f2faeec	0.68626285
52	0x3eb31c00	0.349823
53	0x3f41c29d	0.7568758
54	0x3e666de5	0.22502859
55	0xbf0706c2	-0.52744687
56	0x3edfdc20	0.4372263
57	0x3f1318c5	0.5745967
58	0x3f37e02c	0.71826434
59	0xbf01632f	-0.5054197
60	0x3f66e8ef	0.9019918
61	0xbd2580cc	-0.040406033
62	0xbf33e2a9	-0.7026773
63	0xbe0588d7	-0.13040482

l2.bias f4 [8]
0	0x3edba0bf	0.42896077
1	0x3ebc3a18	0.36763072
2	0x3e9a05e7	0.30082628
3	0xbd81ef76	-0.06344502
4	0x3ea00e8f	0.31261107
5	0x3e15642f	0.14588998
6	0x3e18f27d	0.14936252
7	0x3ee4922e	0.44642776

l3.weight f4 [6, 8]
0	0x3eaa00ee	0.33203834
1	0xbeed0ab3	-0.46297225
2	0x3f09f04e	0.538823
3	0xbe046cc7	-0.1293212
4	0xbf791510	-0.97297764
5	0xbf4271f7	-0.75955147
6	0xbf41c824	-0.75696015
7	0xbf7c5730	-0.9857054
8	0xbf970ae4	-1.1800199
9	0x3f34899b	0.7052247
10	0x3e3b0c19	0.18266334
11	0x3f39ed69	0.72627884
12	0xbf8116c0	-1.0085068
13	0xbed1db24	-0.40987504
14	0x3f22c841	0.63586813
15	0xbfa95dd8	-1.3231764
16	0x3eca92b8	0.39565063
17	0xbf7d09e7	-0.98843235
18	0xbd87d2dc	-0.06632015
19	0xbfa34508	-1.2755442
20	0x3efd46aa	0.49467975
21	0xbf0465b0	-0.5171766
22	0xbf102395	-0.56304294
23	0x3f383be4	0.71966386
24	0x3e45a4e1	0.19301178
25	0xbf3f92e6	-0.74833524
26	0xbf97cc0b	-1.1859144
27	0x3f364803	0.7120363
28	0x3ea29a33	0.3175827
29	0xbe0f99e3	-0.14023547
30	0x3d5d3c9e	0.054012887
31	0x3dc0133d	0.093786694
32	0xbe89c8bf	-0.2691097
33	0x3f3553ce	0.70831
34	0xbe70ad31	-0.23503567
35	0xbdb668e4	-0.08906725
36	0x3ed6706f	0.41882655
37	0xbf5f5d95	-0.8725217
38	0x3ebc8531	0.36820367
39	0xbbf9161e	-0.0076015135
40	0xbf4ba767	-0.7955231
41	0x3ef17dd9	0.47166327
42	0x3ecd675f	0.40117928
43	0xbf143f8f	-0.5790948
44	0xbef8421c	-0.48487937
45	0x3edb9b91	0.42892125
46	0xbf1b837b	-0.607475
47	0xbf0fff89	-0.5624929

l3.bias f4 [6]
0	0xbe38087d	-0.17971988
1	0xbd10b662	-0.035330184
2	0x3e1d2da9	0.15349449
3	0xbf147e70	-0.5800543
4	0x3d555c71	0.052090112
5	0xbdc38c32	-0.095482245
